…
learning_starts:
  desc: null
  value: 10000
lr_schedule:
  desc: null
  value: <function constant_fn.<locals>.func at 0x7f3c3955f8b0>
max_grad_norm:
  desc: null
  value: 10
n_envs:
  desc: null
  value: 1
num_timesteps:
  desc: null
  value: 0
observation_space:
  desc: null
  value: Box(0, 5, (9, 9), uint8)
optimize_memory_usage:
  desc: null
  value: 'False'
policy:
  desc: null
  value: "DQNPolicy(\n  (q_net): QNetwork(\n    (features_extractor): FlattenExtractor(\n\
    \      (flatten): Flatten(start_dim=1, end_dim=-1)\n    )\n    (q_net): Sequential(\n\
    \      (0): MRBF()\n      (1): Linear(in_features=128, out_features=32, bias=True)\n\
    \      (2): ReLU()\n      (3): Linear(in_features=32, out_features=128, bias=True)\n\
    \      (4): ReLU()\n      (5): Linear(in_features=128, out_features=4, bias=True)\n\
    \    )\n  )\n  (q_net_target): QNetwork(\n    (features_extractor): FlattenExtractor(\n\
    \      (flatten): Flatten(start_dim=1, end_dim=-1)\n    )\n    (q_net): Sequential(\n\
    \      (0): MRBF()\n      (1): Linear(in_features=128, out_features=32, bias=True)\n\
    \      (2): ReLU()\n      (3): Linear(in_features=32, out_features=128, bias=True)\n\
    \      (4): ReLU()\n      (5): Linear(in_features=128, out_features=4, bias=True)\n\
    \    )\n  )\n)"
policy_class:
  desc: null
  value: <class 'stable_baselines3.dqn.policies.DQNPolicy'>
policy_kwargs:
  desc: null
  value: '{}'
q_net:
  desc: null
  value: "QNetwork(\n  (features_extractor): FlattenExtractor(\n    (flatten): Flatten(start_dim=1,\
    \ end_dim=-1)\n  )\n  (q_net): Sequential(\n    (0): MRBF()\n    (1): Linear(in_features=128,\
    \ out_features=32, bias=True)\n    (2): ReLU()\n    (3): Linear(in_features=32,\
    \ out_features=128, bias=True)\n    (4): ReLU()\n    (5): Linear(in_features=128,\
    \ out_features=4, bias=True)\n  )\n)"
q_net_target:
  desc: null
  value: "QNetwork(\n  (features_extractor): FlattenExtractor(\n    (flatten): Flatten(start_dim=1,\
    \ end_dim=-1)\n  )\n  (q_net): Sequential(\n    (0): MRBF()\n    (1): Linear(in_features=128,\
    \ out_features=32, bias=True)\n    (2): ReLU()\n    (3): Linear(in_features=32,\
    \ out_features=128, bias=True)\n    (4): ReLU()\n    (5): Linear(in_features=128,\
    \ out_features=4, bias=True)\n  )\n)"
replay_buffer:
  desc: null
  value: <stable_baselines3.common.buffers.ReplayBuffer object at 0x7f3c394b6d30>
replay_buffer_class:
  desc: null
  value: <class 'stable_baselines3.common.buffers.ReplayBuffer'>
replay_buffer_kwargs:
  desc: null
  value: '{}'
reward_list:
  desc: null
  value: deque([], maxlen=1000)
sde_sample_freq:
  desc: null
…
